…
\n","phaseTWOmodel.add(Dense(256, activation='relu'))\n","phaseTWOmodel.add(Dropout(0.6))\n","phaseTWOmodel.add(Dense(128, activation='relu'))\n","phaseTWOmodel.add(Dropout(0.4))\n","phaseTWOmodel.add(Dense(10, activation='softmax'))\n","print(phaseTWOmodel.summary())"],"execution_count":0,"outputs":[{"output_type":"stream","text":["Model: \"sequential\"\n","_________________________________________________________________\n","Layer (type)                 Output Shape              Param #   \n","=================================================================\n","dense (Dense)                (None, 1024)              5154816   \n","_________________________________________________________________\n","dropout (Dropout)            (None, 1024)              0         \n","_________________________________________________________________\n","dense_1 (Dense)              (None, 512)               524800    \n","_________________________________________________________________\n","dropout_1 (Dropout)          (None, 512)               0         \n","_________________________________________________________________\n","dense_2 (Dense)              (None, 256)               131328    \n","_________________________________________________________________\n","dropout_2 (Dropout)          (None, 256)               0         \n","_________________________________________________________________\n","dense_3 (Dense)              (None, 128)               32896     \n","_________________________________________________________________\n","dropout_3 (Dropout)          (None, 128)               0         \n","_________________________________________________________________\n","dense_4 (Dense)              (None, 10)                1290      \n","=================================================================\n","Total params: 5,845,130\n","Trainable params: 5,845,130\n","Non-trainable params: 0\n","_________________________________________________________________\n","None\n"],"name":"stdout"}]},{"cell_type":"code","metadata":{"id":"p1272nIsPIPQ","colab_type":"code","outputId":"3859cad3-ac65-444d-a495-daa82b02a275","executionI
…
lsmodel.summary())\n","\n","#Compile and Fit model\n","WildAnimalsmodel.compile(loss='categorical_crossentropy', optimizer='adam', metrics=['accuracy'])\n","WildAnimalshistory = WildAnimalsmodel.fit(WildAnimals_X_train, WildAnimals_y_train, epochs=100, batch_size=100)"],"execution_count":0,"outputs":[{"output_type":"stream","text":["Model: \"sequential\"\n","_________________________________________________________________\n","Layer (type)                 Output Shape              Param #   \n","=================================================================\n","dense (Dense)                (None, 1024)              5154816   \n","_________________________________________________________________\n","dropout (Dropout)            (None, 1024)              0         \n","_________________________________________________________________\n","dense_1 (Dense)              (None, 512)               524800    \n","_________________________________________________________________\n","dropout_1 (Dropout)          (None, 512)               0         \n","_________________________________________________________________\n","dense_2 (Dense)              (None, 256)               131328    \n","_________________________________________________________________\n","dropout_2 (Dropout)          (None, 256)               0         \n","_________________________________________________________________\n","dense_3 (Dense)              (None, 128)               32896     \n","_________________________________________________________________\n","dropout_3 (Dropout)          (None, 128)               0         \n","_________________________________________________________________\n","dense_4 (Dense)              (None, 2)                 258       \n","=================================================================\n","Total params: 5,844,098\n","Trainable params: 5,844,098\n","Non-trainable params: 0\n","_________________________________________________________________\n","None\n","Epoch 1/100\n","9/9 [==============================] - 0s 5ms/step - loss: 0.8178 - accuracy: 0.8400\n","Epoch 2/100\n","9/9 [=========================
…
